models/final_model.pth (torch, 34992 bytes, 9 tensors)

attention.query.weight f4 [63, 19]
00000000: a820 44c0 9f5d 2f3f 7214 12c0 325d 09c0
00000010: ebe6 cac0 1393 6a3c e172 0440 470e 2fbf
00000020: 1153 08c0 1091 9cbf 01e3 c7c0 9c37 58c0
00000030: be9d 3ac0 cd76 f63f dd7e 5c40 81c1 7440
00000040: cc1f 3d3f c47b 9c40 65cc 4ac0 2f5a d63e
00000050: 8a87 a540 e700 433f e6b8 b1bf 1297 d1bf
00000060: d508 44c0 d6de c3bf 16c1 1c3f fa3c 4bbd
00000070: bb4b 2b3d c8d3 debf 5def e3bf db29 1e40
00000080: 1ac4 bfbf 08bc e9be 30ca 6abf 3489 91c0
00000090: ace3 803f fbf1 28c0 f7b0 15bf 3e61 d53f
000000a0: 3b40 d1bf ec55 53c0 7e28 e73f 430e d43f
000000b0: d860 a640 d3fc 1cc0 74c4 bdbf db95 9d40
000000c0: 9677 933f 7924 2b40 e1c1 6cbe 690d ccbe
000000d0: 149a 6a3e fa53 e93f 5a51 66bf 4b49 eb3f
000000e0: 557f 22be c3a9 1440 b4e3 32bf 3bac 7540
000000f0: 59cc 4cbc 9b66 e93f 2654 f2be f1a6 a8c0
00000100: 345c 3940 ebf6 c93f a019 1dbe 1412 063f
00000110: a9b3 e83f c63d 583e c658 0fc0 3b6f 1540
00000120: 23fc e5bf 3dbb 443f 167e 0b3f cda9 1ec0
00000130: eedd 3c3f b858 fb3f e5ec 2140 acf8 82bf
00000140: b69c 5bbf 6e5a 323f ed3c 25c0 ef44 bd3f
00000150: 6288 253f 4a76 a7bf ea77 6dbe 38fe 933f
00000160: 665b 313e b7e1 61bf d1b2 553f 6d97 32bf
00000170: e556 14c0 f197 263e c80e 5fbf 9db0 5a3e
00000180: 966d 323e ad5d 10be f946 6bbf 35f3 1abf
00000190: 9f89 64bc f1e0 aebf d0d7 34c0 2e85 a63e
000001a0: 4266 fc3e ef58 953d 5e7e 2240 976c 893e
000001b0: 1a5a 20c0 3370 e9bd 2615 00bf 806e 22be
000001c0: 87eb e93f baac 703d ef86 53c0 3f7e 29c0
000001d0: 7a9e dfbe 1964 97bf 96a6 f1bf 101f 973f
000001e0: 839e 0d40 6d35 da3f cfda 27c0 5993 e4bf
000001f0: 8aae be3e b6e5 3540 a78c 08c0 bb01 80bf
00000200: 3666 91bf 9884 6f40 b397 b0be 3741 40c0
00000210: 4040 21c0 adeb 8e3f 8118 3a40 878f fe3f
00000220: 5d50 2fbf 7540 5ebf a133 84bf 4299 7ec0
00000230: 4012 0f3f 9c63 b53e e4bd aebe 61ab 263f
00000240: d657 0e40 4d68 ff3d e70c 33c0 00e8 fa3f
00000250: 0dbb be3e d5d0 19c0 e7d0 28be 21e0 b3bf
00000260: 9f78 28bf 0329 e9bf 7be1 e23b a37e 0340
00000270: c494 16c0 fb30 6a3e e2ab 3bc0 f84d 0cc0
00000280: 3d67 53bf 2384 3fc0 dc2a cc3f fd34 35c0
00000290: aa7a c2c0 afa5 443f ae4f ca3f 6dea cebf
000002a0: 2c52 d73e cbf1 0fc0 2b34 82bf 25c5 f63e
000002b0: ec4a 663f 07ca 83bd e177 c3bf 8901 f33e
000002c0: 88c5 593e 9788 5ebf 0a07 63be 5891 613f
000002d0: 295d 0a3f 311f 0a3d be7f 2040 793b f2be
000002e0: 2528 bdbe 199f 1ebe 9b73 00be 21f2 3ebf
000002f0: 4e08 63be 5dfb 17c0 cc13 d33f e47a 2640
00000300: 8984 1a40 fee5 14bf 5f06 d83f 0016 d23f
00000310: 1f66 1b3e db92 45bf 7e43 903f c10f 793f
00000320: aa28 01bf a57a 62bd 44ea 793e 2446 febe
00000330: 13af c3be ed91 38be dee3 4dbf a24f 2e40
00000340: 1a73 4dbf a6dc 1b40 634a af3f 6d3c 45bf
00000350: 98db 08bf 1945 38be 903a 11c0 9a8d 91c0
00000360: 5f01 a3bf ec91 0e40 8306 953f 82b2 c6bd
00000370: 9036 cf40 9026 16bf cb77 1dc0 09ee ba3f
00000380: 8768 c83f 2575 07be b160 4340 1ffd 79c0
00000390: 47c8 993f 6c8f 7f3e 655c 2d3f fda1 71bf
000003a0: 4afd 04bf 4e73 a93e 9a71 5bbe bdf9 93bf
000003b0: 132b 613d 23e0 bdbf 79c5 d1be 8292 7540
000003c0: 5034 f2be c959 3b3d 1f10 64be c3e3 e53d
000003d0: 5df5 abbe 6429 0240 c236 82c0 3beb f03f
000003e0: d250 0e3f a207 9d3f 0b47 07c0 dc31 51bf
000003f0: 1413 22bf 1e4d a8bf c657 d93f 785a 523f
-3.0644932 0.6850223 -2.282498 -2.1463132 -6.340688 0.014317292 2.0695117 -0.6838116
-2.13007 -1.223177 -6.2464604 -3.3783941 -2.9158778 1.9255005 3.4452431 3.8243105
0.73876643 4.890108 -3.1687253 0.4186568 5.1727953 0.7617325 -1.3884552 -1.6374228
-3.063039 -1.5302379 0.61232126 -0.0496187 0.04182027 -1.740838 -1.7807423 2.4713047
-1.498172 -0.4565127 -0.91714764 -4.5479984 1.006948 -2.6397693 -0.5847315 1.6670301
-1.6347727 -3.3021193 1.8059232 1.6566852 5.1993217 -2.4529312 -1.4825578 4.924543
1.152087 2.674101 -0.23120834 -0.3985398 0.22910339 1.8228753 -0.8996788 1.8381742
-0.15868886 2.3228614 -0.698787 3.838637 -0.012499892 1.8234438 -0.47329825 -5.2703786
2.8962526 1.5778478 -0.15341806 0.52371335 1.8179828 0.21117315 -2.2397933 2.334914
-1.7967571 0.768482 0.54489267 -2.4791138 0.7377614 1.963645 2.530084 -1.0232139
-0.85785997 0.69669235 -2.5818436 1.4786662 0.6466123 -1.3082974 -0.23190275 1.1561956
0.17320022 -0.8823504 0.8347598 -0.6976231 -2.3178036 0.16268899 -0.8713193 0.21356435
0.17424616 -0.14098234 -0.9190517 -0.60527354 -0.013948827 -1.3662397 -2.8256721 0.32523483
0.49296767 0.07292353 2.5389628 0.2684066 -2.5054994 -0.113983534 -0.5003227 -0.15862465
1.8275002 0.058758475 -3.3051107 -2.6483305 -0.43675596 -1.1827422 -1.8878963 1.1806355
2.2127998 1.7047554 -2.62273 -1.7857467 0.37242538 2.8421454 -2.1335847 -1.0000528
-1.1359317 3.7424679 -0.34490737 -3.0039804 -2.5195465 1.1165673 2.9077456 1.9887551
-0.68482 -0.86817104 -1.0328256 -3.978104 0.5588722 0.35427558 -0.3412925 0.65105253
2.224111 0.12471066 -2.7976625 1.9602051 0.37252083 -2.403371 -0.1648594 -1.4052774
-0.65809053 -1.8215641 0.006923852 2.0546043 -2.35283 0.22870247 -2.932366 -2.1922588
-0.82579404 -2.99244 1.595058 -2.8313591 -6.0774736 0.76815313 1.5805566 -1.6165291
0.4205488 -2.2491329 -1.017217 0.48197284 0.8995807 -0.06435018 -1.5270959 0.4746211
0.21266758 -0.8692717 -0.22170654 0.881124 0.540484 0.033721153 2.5077968 -0.47311
-0.3694469 -0.15490378 -0.125441 -0.7458821 -0.22171137 -2.374717 1.6490417 2.6012506
2.4143393 -0.5816344 1.6876944 1.6412964 0.15175675 -0.7717721 1.1270597 0.97289664
-0.50452673 -0.055292744 0.24405771 -0.49662888 -0.3821951 -0.18024416 -0.8042582 2.7236104
-0.80253756 2.4353423 1.3694576 -0.7704533 -0.53460073 -0.17995109 -2.2691994 -4.5485353
-1.2734793 2.2276564 1.1642612 -0.097020164 6.4754105 -0.5865259 -2.4604366 1.4603893
1.5656899 -0.13228281 3.0527766 -3.9060743 1.2014245 0.24957055 0.6771911 -0.943878
-0.5194899 0.33095783 -0.21430054 -1.1560589 0.05497272 -1.4834026 -0.40970972 3.8370671
-0.47305536 0.045739923 -0.22271775 0.11225083 -0.33585635 2.0337763 -4.0691843 1.8821787
0.5559207 1.2267954 -2.113711 -0.81716704 -0.6331036 -1.3148534 1.6979911 0.82169294

attention.query.bias f4 [63]
00000000: 7235 3740 5b2c 8cbd f5ee d2bd b927 5e3e
00000010: 923a 4f3e 085c 393e 074a 993f b50b b03e
00000020: 114c 17be e86a ea3e 70e4 553d 5acb 1d3f
00000030: e366 533f 7bbc b23f 8710 0b40 8671 b43e
00000040: 9754 d43f d9da 7dbe 4b3d 4a40 5cb5 273e
00000050: 497f 383d ac23 023f a6cd 78bc 318d a53e
00000060: 356c 163f 6437 41be 336d 4440 23f6 743f
00000070: f3eb 01be 140a 20be 53ce 04bf 470d a03f
00000080: 8e11 a4be b9b2 8f3e 09fc 6d3f 5092 94be
00000090: 8843 893e 9161 273f 5890 8a3e ec34 aebe
000000a0: 6741 d03c dc8e dc3f eddd c7be f223 cd3f
000000b0: 08a5 cb3e a3fd 223f 8cba ad3f 1a8d 8a3f
000000c0: 267c 5540 70bb 9f3e a665 7440 6d80 8c3f
000000d0: 5f4c 8c3e 4b5d 47be a414 d0be 85e3 653e
000000e0: 278c af3d 83b2 863f 4394 2c3f 034b bc3f
000000f0: d041 b73e f68f 423f 393c f03d
2.862637 -0.06844398 -0.10299484 0.2169484 0.20237187 0.18101513 1.1975716 0.34383932
-0.14775111 0.45784688 0.052219808 0.61638415 0.8257887 1.396377 2.1728837 0.35242862
1.6588315 -0.24790515 3.159991 0.16377777 0.045043264 0.5083568 -0.015185749 0.32334283
0.5875886 -0.18868786 3.069165 0.95688075 -0.12687664 -0.15628844 -0.51877326 1.2504052
-0.32044643 0.28066042 0.929627 -0.29017878 0.26809335 0.6538325 0.2706325 -0.3402475
0.025421811 1.7231097 -0.39036503 1.6026595 0.39774346 0.6366827 1.3572555 1.0824311
3.3357024 0.3119769 3.8187041 1.0976692 0.27402017 -0.19469182 -0.40640748 0.22450073
0.08571654 1.0523227 0.6741373 1.4710392 0.35792398 0.76000917 0.117302366

attention.key.weight f4 [63, 19]
00000000: c324 1b3f a1e9 dd3f 0f86 6140 651d d83f
00000010: ddad 8340 e4ad 9e3f b59c 2bbd 2cf7 613f
00000020: bea6 3f3f 12b7 2f40 c8ff 553e 5c1e 8ebf
00000030: 90ea d0be b34a 0d3f d0ab ea3f 107c 513f
00000040: 6288 cb3f e881 4abf 2656 babf 8855 38bf
00000050: d677 8dbe 7962 dabe a2c9 8340 ba23 3840
00000060: 4b5c a93f 1312 c4bf 2af5 543f 1509 bfbf
00000070: f5ed 66bf e0d4 97bf 512a c63f 19ca 0840
00000080: c457 3840 9f06 98bf 6799 fdbf c74c b6be
00000090: a2d2 b6bf d1d9 6bbf a25f 26c0 19d3 fabe
000000a0: f057 3ac0 2529 3fbf 6c73 6f3f 50f5 1640
000000b0: c0b1 09bf 99ec 4dc0 d739 1ac0 a535 4c40
000000c0: d8ea ccbe fdd3 7bbf 7f83 0f40 2036 c2be
000000d0: df97 153f ef3e 2a3d 1db5 db3f b601 95c0
000000e0: 4ab7 4a40 98e2 58bf 726a 183f c363 1ac0
000000f0: 061c 143e 1c3e 3440 615b 36bf 58aa 2b3f
00000100: 717d 58be c8c8 913e ce34 063f 69dc ae3f
00000110: c06d 073f 9f01 a63f 6149 f8bf 0b72 88c0
00000120: 502a 07bf 9a28 dc3f 022e b63f 79ff 763e
00000130: dbf7 64bf f7b4 0d3e 34ac 78bf ed46 6a3f
00000140: 48fa ba3f 1ec9 f8bd 959e 8e3f 70ee ad3f
00000150: 7b88 80be 7607 edbf 65b5 dc3f bf9c f9be
00000160: 065d 1b40 0716 913f f18c 963f 1965 cf3f
00000170: 36e8 a5be 5331 ad3f 75f3 1bc0 d8ed 1d3f
00000180: 3465 c43f af85 583f f4ce ecbf b208 873f
00000190: 70cd 6f40 5b67 c9bf 03e1 3ac0 5abf d23e
000001a0: 5cde cebd 8d26 d83f c5a4 febd e932 12bf
000001b0: fd34 5d3d 2396 0d40 6909 c6bf 54bd ac3f
000001c0: bf8f 55bf 2860 30c0 0850 4f3f 903e 3840
000001d0: b491 8740 2485 12be df27 9a3f 18eb 26c0
000001e0: dcd8 833e f0de 3740 5472 cd3e 6812 09bf
000001f0: 1ef0 ff3f f06d 4fc0 247b 38bf 6bc4 dabf
00000200: 6b8f cb3f e6c9 34c0 a886 ef3f 0ca5 55bf
00000210: 90b3 a33e c56e d1bf 44bb 2440 d460 e53f
00000220: 0fbc 4140 881e 3840 47dd 2ec0 b0ac 6040
00000230: 24a6 8cc0 3ee3 fcbf f074 3e3f a8ba df3f
00000240: 7310 39c0 4d60 ff3e 8c11 47bf 1294 b43f
00000250: 0ec5 a43e 8016 0d3f d456 453e 659b b4bf
00000260: 198b 983f bf93 a6be dfbe 3ac0 f7f8 283e
00000270: 5328 6940 cd88 b0bd 0f41 8a3e dcce 7ec0
00000280: 5ef4 69bf 509c 553f 6601 8cbe 5c96 653f
00000290: 8e99 2c40 e9be c1bf 12e7 763e 9e26 60be
000002a0: 238e 5ebf c264 a9bf c2f8 0240 a699 07c0
000002b0: 9917 01c0 a2c7 bdbe 1dd7 b5bf 4f01 e13f
000002c0: 5706 fabf 2f1d 18c0 4650 12c0 0b66 d8bf
000002d0: 1aa6 703f 7d66 f83e d103 52be 7ee9 55bf
000002e0: 08d1 a3bf 5e13 a43f dbb1 8d3c d31c d8bf
000002f0: 7dc6 89bf f64f dbbe 6113 e63f a3e7 613f
00000300: b42a 263e 3ae7 d93f 928f 0040 5578 9c3f
00000310: aa70 223e 9b85 c33f 115e dd3f 1af7 d0bf
00000320: 4573 0040 6c91 c43e b211 bf3f 8b9e c2bc
00000330: 64e6 7bbf 8e78 293e af45 6abf c883 343f
00000340: 089d 07c0 f0d2 de3d 0422 373f b549 32bf
00000350: eba3 ad3f a9db 01c0 0839 b7bd fe47 cebf
00000360: 9832 0cc0 6974 0a3f 9bc8 66bf 4090 293f
00000370: 3a26 a73f decf 813f 198e e23d 7687 cabd
00000380: 26ef 1cbf 0a05 2d40 d4f2 2cc0 9f26 8340
00000390: 2327 853d 9c00 b93f a178 5b40 4b1c a13e
000003a0: fa1d 9b40 4c2c 4c3e c577 913f 3a51 cb3e
000003b0: 89ff 653e 6cb0 a1bf 4eab fb3f ad4d 21bf
000003c0: 1f28 c83f 6c97 dabe da58 ae3e 1f4e 9ac0
000003d0: 4fc1 343f f895 f5bf 3ec2 05c0 5e56 d5bf
000003e0: 1a12 c8bd 7e5a 7340 2990 1540 b948 3b40
000003f0: 51c4 3dc0 653b 213f 18d2 88c0 cc22 a2bf
0.6060297 1.7336923 3.5238073 1.688397 4.1149735 1.2396817 -0.041897494 0.8826778
0.74863803 2.7455487 0.20898354 -1.1103015 -0.40803957 0.55192107 1.8333683 0.8182993
1.5900996 -0.7910447 -1.455754 -0.7200551 -0.2763049 -0.42653254 4.1183634 2.8771806
1.323129 -1.5318016 0.8318659 -1.4924647 -0.90206844 -1.1861839 1.5481664 2.137335
2.8803568 -1.1877021 -1.981244 -0.3560545 -1.428303 -0.92129236 -2.599587 -0.4898918
-2.9116173 -0.74672157 0.93535495 2.3587227 -0.5378685 -3.2175658 -2.4097803 3.1907742
-0.40022922 -0.98370343 2.242401 -0.3793192 0.5843486 0.041563924 1.7164646 -4.656459
3.167437 -0.84720755 0.5953742 -2.412339 0.14463815 2.8162909 -0.71233183 0.670568
-0.21141602 0.28473496 0.52424324 1.3661014 0.5290184 1.2969245 -1.9397393 -4.2639213
-0.5279894 1.7199891 1.423279 0.24120893 -0.894407 0.13838564 -0.9713776 0.91514474
1.460763 -0.12147735 1.1142145 1.358839 -0.25104126 -1.8517902 1.7242857 -0.487524
2.4275527 1.1334847 1.1761762 1.6202728 -0.32403725 1.3530678 -2.4367344 0.61691046
1.5343385 0.84578985 -1.8500657 1.0549529 3.746914 -1.5734667 -2.9199836 0.41161615
-0.101010054 1.6886765 -0.12433771 -0.5710893 0.05400561 2.2122886 -1.5471622 1.3495278
-0.83422464 -2.755869 0.80981493 2.8788185 4.236536 -0.14308602 1.2043418 -2.608099
0.25751388 2.872982 0.40126288 -0.5354371 1.9995153 -3.241085 -0.720629 -1.7091192
1.5903143 -2.824823 1.8712969 -0.83454967 0.31972933 -1.6361929 2.5739298 1.7920175
3.0271032 2.8768635 -2.7322557 3.51054 -4.395281 -1.9756849 0.7439718 1.7478838
-2.891629 0.4987816 -0.7776115 1.4107687 0.3218159 0.5511246 0.19271404 -1.4109923
1.1917449 -0.32534596 -2.9178998 0.16501223 3.6430862 -0.08619843 0.2700276 -3.9813757
-0.913885 0.8344164 -0.27344817 0.89682555 2.6968722 -1.5136386 0.24111584 -0.21889731
-0.86935633 -1.3233874 2.046433 -2.118753 -2.0170653 -0.3706637 -1.4206272 1.7578524
-1.9533185 -2.3767812 -2.2861495 -1.6906141 0.9400345 0.48515692 -0.20509268 -0.83559406
-1.2798166 1.281841 0.017296722 -1.6883796 -1.0763699 -0.42834443 1.7974664 0.88244075
0.16227227 1.702369 2.0087628 1.2224222 0.1586329 1.5275148 1.7294332 -1.632541
2.0070355 0.38392198 1.4927275 -0.02375724 -0.98398423 0.16549894 -0.9151258 0.7051358
-2.1189594 0.10880077 0.7153628 -0.6964372 1.3565649 -2.029032 -0.08946425 -1.611572
-2.190588 0.5408388 -0.9014985 0.66235733 1.3058541 1.0141561 0.11062259 -0.098891184
-0.6130241 2.7034326 -2.702321 4.0984645 0.06501605 1.4453311 3.4292376 0.31466898
4.8474092 0.19938773 1.1364676 0.39710408 0.2246076 -1.2631965 1.9661653 -0.6300915
1.5637244 -0.4269365 0.34052163 -4.8220363 0.70607466 -1.9186392 -2.0899806 -1.6666982
-0.097690776 3.8023982 2.3369238 2.9263136 -2.9651072 0.62981254 -4.275646 -1.2666869

attention.key.bias f4 [63]
00000000: 372d cd3e 4108 103e e83f c9be 4611 3c3f
00000010: d804 af3e 8224 e73e 9f84 9b3e c486 0f3f
00000020: b8c7 91bf 63b1 253f d9ed 0fbf da19 4bbf
00000030: 0a62 523f fc1d 643f b4ea de3e 8de1 cbbf
00000040: f56c 1f3f 12a9 84bd 914e 5a3f 053b b0bf
00000050: 1bf5 103f 9baf e43e 2e6b 523f a13b 53bf
00000060: 5b69 87bf 41df 9cbe 939b 1f3e 09e4 dcbe
00000070: 42f7 6f3f 511d edbe 24cc ecbe ef07 b03d
00000080: fe6a 2ebf 0b23 493f 561d a23e 415a 213f
00000090: 14f8 0b3f 4f52 1e3f 0fd4 39bf 6312 503f
000000a0: 9c03 f23c 3748 e53c befd 4b3f a661 bcbf
000000b0: 0f0c 72c0 571f 3d3f d68e 07bf 9c81 433f
000000c0: 2226 5b3e 80b5 14be 1830 5c3e d39a 82bf
000000d0: 7964 29be e105 703f cec3 413f 2bb9 3c3f
000000e0: 6d78 a7bf 9ad9 8e3f d0b3 0e3f 1418 ee3e
000000f0: 8ebf d43e 003c a7be aaab 783c
0.4007356 0.14065649 -0.3930657 0.7346386 0.34183383 0.4514504 0.3037462 0.5606501
-1.1389074 0.64723796 -0.562223 -0.7933632 0.82180846 0.8910825 0.4353844 -1.5928208
0.6227563 -0.0647756 0.8527613 -1.3768011 0.56624 0.44665226 0.82194793 -0.8251286
-1.0579027 -0.3063908 0.1558669 -0.43142727 0.9373666 -0.4631143 -0.46249497 0.08595263
-0.6813201 0.78569096 0.31663007 0.6302834 0.5467541 0.6184434 -0.725892 0.81278056
0.029542737 0.027988536 0.79684055 -1.47173 -3.781986 0.73875946 -0.52952325 0.76369643
0.21401265 -0.14522362 0.21502721 -1.0203499 -0.16542234 0.9375897 0.756894 0.73720044
-1.3083626 1.1160157 0.5574312 0.46502745 0.41552395 -0.32662964 0.015177647

attention.value.weight f4 [63, 19]
00000000: 9d41 25bf 28d4 ebbe 7278 98bf f52f 3fbf
00000010: 38f6 56bf 7040 9cbf 5db9 0dbf 4e61 eabe
00000020: 4a04 1bbf 0dce bcbe 470d 5c3f 8599 babd
00000030: 950f 013e e8ee f03d a411 9dbf a1a8 a0be
00000040: 4cc4 f5be a2d4 60c0 aba8 d0be 479f b5bf
00000050: 0a17 23c0 7975 17c0 9492 433f 00d3 e5be
00000060: 3e7d bfbf 9f0a 7e3f 2c5d c5bf f438 c4bf
00000070: d69f 4abf 7e58 97bf 1aa3 e03c 9cef 083e
00000080: 8624 2fbe 7fde 143e 97c6 c6bf dbc3 86bf
00000090: d5d2 cdbf cf38 bfbf bfd9 0cc0 2f13 a5bf
000000a0: daa1 03c0 8956 5abf eb9a 953d bb5e 4ebe
000000b0: ddae 003e faa3 88bf 760c 07c0 f233 9abf
000000c0: 8cd8 a73f 5522 a03f 7932 a23e d134 91bf
000000d0: 52f9 533e 3098 4dbf 29ff 9dbf 9a62 f13c
000000e0: 237e 47bf d476 3cbe b614 52be ffb6 cfbe
000000f0: dca9 873f 8246 68be 9bf0 8dbf bde6 5dbf
00000100: 867a f5be d560 2b3d 6b10 073f 4e12 13be
00000110: 1562 d6be ff6b 46be ff3a 233f aed7 84bf
00000120: d696 f7be 4c82 313d bee6 70be a595 0cbf
00000130: 1998 eb3d d8d6 4f3e 5dc3 04bf f458 483f
00000140: 7f94 cfbe 4160 fdbe b788 88bf 0cdb 193e
00000150: 240b 22be 8c0c 933e 9f9e 8b3e 273a d9bd
00000160: 6258 7cbb 9fb2 943e 881b 2ebf a900 08bf
00000170: baed 003f bd3c b33e 939c d5bd aa36 973e
00000180: 667e cebd ed5e 55bf d6a8 a23f d659 17be
00000190: d487 8b3d c046 81bf d73e 823d 0419 953e
000001a0: 7a7d 62be 41fa 6d3f 3fa6 56bd e9c2 31bd
000001b0: 91f2 2f3e 06ff d2be 460d 273e e392 2f3f
000001c0: dc9e ff3d f18f 89be 10b2 fd3d f1b7 9abe
000001d0: 6da3 a53f 7238 7b3f 0d29 53bf c9af 8fbe
000001e0: eb84 6d3c b43f cf3e fc1c 753e 1797 123e
000001f0: 9b9d 27be cb6e 163f 5cdd df3e 999b d83e
00000200: 7de7 fe3e 44f2 833c 58e4 65bf d382 b43f
00000210: 482e b4be df70 ee3e e769 2abe 89b8 96bf
00000220: 4c64 413f e98a 15bf 51d6 1abf 628e 49bf
00000230: ac55 563e 70b4 ea3e 311a f73d 9086 7a3f
00000240: 5678 81bf 468f 06be 72c0 88bd 8ffe b23d
00000250: 8d49 f63e 7e5e 073f 6933 10bf 9610 d1be
00000260: 9628 1a3e 93ea f8bf f767 433f f497 b2be
00000270: a5d3 06c0 0df6 be3f f6f8 0ebf fe58 1e3f
00000280: c519 d73d 2626 ac3f bb89 163e a349 0b3f
00000290: b493 0e3f 0fd0 7d3f 5cb8 0bbe 1151 d33e
000002a0: d7b4 00c0 dfb2 33bd 9aff cf3f bb52 873e
000002b0: 37e5 913e 6ffc 4a3c 8655 8c3f b734 013e
000002c0: d36e 783c 3f2d 19bf 4fdd 153e 3f6f 9a3e
000002d0: 8d99 05bf d7de 513f 4b21 18bf aa35 f1be
000002e0: 53a5 9b3d edd2 3ebf 5a37 acbe 6a13 f03e
000002f0: c83b babe 4729 37bf c8de 74bf effb fdbd
00000300: c988 b3be 121a 813f ff64 2dbe 5352 f33e
00000310: 4176 85be a2a4 8abe 0ff4 4fbf 4d07 dcbd
00000320: aee4 343e bd2f aebe 5676 413e 21a3 bdbd
00000330: f9c0 f73d 9e18 f13d 491d e73e 1b0c 633e
00000340: f360 40bf 080d 113f 9143 c53c 8ed4 7abf
00000350: 671b 003e 95d4 1cbf e8bf 5f3e 08bb 823b
00000360: e8e2 d9bd a73c e63e 0466 73bc d9b1 9fbb
00000370: ac1f b9bf cb24 443e bdfa 933d 7660 94bf
00000380: 44bc 38be 9998 363f a72e 85bf f2cf 00c0
00000390: 680f 463e e487 393e 1c01 d23e e688 983f
000003a0: f2c7 193f 4fe0 01bf 1961 973e c0e3 77bf
000003b0: e085 fe3e 9d1b b33d baa7 893e 3aa0 91bd
000003c0: 6f82 8bbe 1970 5abf 5863 96bf 571f 1dbf
000003d0: d3e0 943e 5f6a da3e ac37 25be 752d c5bd
000003e0: 8153 3abf 14cd 2dbf e61e 0c3f 7132 28bd
000003f0: 9145 8fbc bf88 07bf 2abf ce3f c18a 1a3e
-0.6455324 -0.460603 -1.1911757 -0.7468255 -0.8396945 -1.2207165 -0.55360967 -0.45777363
-0.6055342 -0.36875954 0.8595776 -0.09111313 0.126036 0.11764318 -1.2271008 -0.31378654
-0.48001325 -3.512978 -0.40753683 -1.4189233 -2.5482812 -2.366545 0.76395535 -0.44887543
-1.4960096 0.99234957 -1.5419059 -1.5329881 -0.7915014 -1.1823881 0.027421523 0.13372654
-0.17103776 0.14538 -1.5529355 -1.052852 -1.6079966 -1.4939212 -2.2007902 -1.2896479
-2.0567536 -0.8528829 0.07304939 -0.20153324 0.12566705 -1.0675042 -2.1101356 -1.2047102
1.311296 1.2510477 0.31679133 -1.1344243 0.20700577 -0.80310345 -1.2343494 0.029465962
-0.77926844 -0.18404704 -0.20515713 -0.40569302 1.0598712 -0.22683147 -1.1089052 -0.86680204
-0.4794504 0.041840393 0.52759427 -0.14362451 -0.41871706 -0.19377135 0.63761896 -1.037832
-0.48357266 0.04333715 -0.23525521 -0.5491584 0.1150362 0.202968 -0.518606 0.7826073
-0.4054298 -0.49487498 -1.0666722 0.15024966 -0.15824562 0.2872051 0.27269456 -0.10606795
-0.0038504829 0.29042527 -0.6801076 -0.5312601 0.5036274 0.35007277 -0.10430255 0.29533893
-0.10082702 -0.8334797 1.2707775 -0.14780363 0.068130165 -1.0099716 0.06359642 0.29120648
-0.22118178 0.9295998 -0.05240464 -0.04339877 0.17182375 -0.41210192 0.16313657 0.68583506
0.12481472 -0.2686763 0.12387478 -0.3021846 1.2940499 0.98133004 -0.82484514 -0.280638
0.014497022 0.4047829 0.23936838 0.14315449 -0.16368715 0.58762807 0.4372357 0.42306212
0.49785987 0.016106732 -0.8980155 1.4102424 -0.3519156 0.4657049 -0.16641961 -1.1775066
0.75543666 -0.58415085 -0.6048327 -0.78732884 0.20931119 0.45840788 0.120655425 0.97861576
-1.0114849 -0.13140592 -0.06677331 0.087399594 0.4810299 0.5287856 -0.56328446 -0.40832967
0.15054545 -1.9446586 0.7633051 -0.34881556 -2.1066678 1.4918839 -0.55848634 0.6185454
0.10502962 1.3449142 0.14700978 0.54409236 0.5569413 0.991456 -0.13644546 0.41272786
-2.0110376 -0.043871757 1.6249878 0.26430306 0.2849519 0.012389286 1.09636 0.12617765
0.015163141 -0.59834665 0.14635204 0.30163 -0.52187425 0.8198065 -0.594258 -0.47111255
0.075998925 -0.745406 -0.3363598 0.46889812 -0.36373734 -0.7154736 -0.9565244 -0.12401568
-0.35065296 1.0086081 -0.16933058 0.47523746 -0.26066783 -0.2707873 -0.8123178 -0.1074358
0.1766536 -0.34020796 0.18892798 -0.0925963 0.120973535 0.117722735 0.4513953 0.22172587
-0.7514793 0.5666051 0.02408007 -0.9798058 0.12510453 -0.61261874 0.2185055 0.003989581
-0.10638982 0.4496815 -0.014855865 -0.004873496 -1.446279 0.1915466 0.07225559 -1.1591938
-0.18040568 0.71326596 -1.0404862 -2.012692 0.19341815 0.18118244 0.4101647 1.1916778
0.6007072 -0.5073289 0.29566267 -0.96831894 0.49711514 0.08745501 0.26885778 -0.07110639
-0.2724795 -0.853273 -1.1749067 -0.61375946 0.29077777 0.4265928 -0.16134518 -0.09627811
-0.72783667 -0.6789105 0.5473465 -0.04106373 -0.017489227 -0.5294303 1.6152089 0.15091993

attention.value.bias f4 [63]
00000000: fe63 ebbe be1b 2dbe 4058 1fbf 4440 10bf
00000010: c90a 89be d33a 1abe 9ce5 c1bd 30d7 45be
00000020: 3edd 083e d930 3dbe e527 a8be bab8 8bbe
00000030: 34f7 1ebe 14d3 8abe 4655 11bf fe5d 80be
00000040: 922a 25bf b006 d8be 2d23 3fbf 9155 76be
00000050: d172 e1be 13eb a63e 215f abbe 4c4b 89be
00000060: 2c08 ccbb 603e bcbe a2df d2bc 8838 83be
00000070: 00a2 9c3e 33cd f33e edad 1f3d b860 59be
00000080: 9029 4a3d 3fea 04bd 5f03 bbbe 0352 ddbe
00000090: 008d 64be 4728 47be 5b01 acbd 3fb4 1cbe
000000a0: 767d 96bc 7c7d a9be 6a34 483e 500f 90be
000000b0: 2f5b 88be 8bd0 bbbe 7046 82be c890 6abe
000000c0: 64d8 0abf 1f2e edbe 6b91 61bf 56c0 58be
000000d0: eee3 32bd 586d ba3d 98e7 3dbe f910 db3e
000000e0: 8472 21be 2d4f 6cbf 7c93 14bf 971b ae3e
000000f0: a1a2 35be 8519 ba3c a2ab cb3d
-0.45974725 -0.16905114 -0.62244034 -0.5634806 -0.2676604 -0.15061502 -0.09467623 -0.19320369
0.13365647 -0.18475665 -0.32842937 -0.27289373 -0.15523988 -0.27114165 -0.5677074 -0.2507171
-0.6451808 -0.42192602 -0.7466305 -0.24056078 -0.4403291 0.32601222 -0.33471015 -0.2681526
-0.00622656 -0.36766338 -0.025741402 -0.25629067 0.30592346 0.47617492 0.038984228 -0.21228302
0.049356043 -0.032449957 -0.3652601 -0.43226632 -0.22319412 -0.19448958 -0.08398696 -0.15303133
-0.018370371 -0.3310355 0.19551244 -0.28136683 -0.26632068 -0.36682543 -0.25444365 -0.22906792
-0.54236436 -0.4632425 -0.88112515 -0.2116712 -0.043674402 0.09102887 -0.18545377 0.42786387
-0.1576634 -0.9230831 -0.58037543 0.34005424 -0.17737819 0.022717247 0.09944846

fc1.weight f4 [63, 63]
00000000: 74d6 a4bf d97c 0bbf 7eb7 333e 997b 3bbe
00000010: 7cb4 bf3e 157c ae3f 03e7 8bbe 60d1 9dbe
00000020: 7c92 4d3d 5d3a 153e aae4 eabc dc40 60be
00000030: f5b3 a0be 7c00 973f ff4f b4be 843b 3c40
00000040: 13b4 813e c6c0 b4be ce97 8b3f 3f99 d33f
00000050: 54ae 34bf b95c e7be 2cf2 333e 8f22 22c0
00000060: 61de f93d 50db 5b3e 12ee b33f 4bab 9b3d
00000070: f935 53bd 4b82 ac3e 0369 00bf 04d2 adbe
00000080: e4bd 8ebe 6a2d 523d 68c1 f93e ae73 a8bf
00000090: 1a9f 91bc f11f fbbd b115 8ebf 59a7 b7bf
000000a0: 8785 8dbf 4d3e a53f e46c 3b3b 59ea efbd
000000b0: 2c42 abbf dee9 38bf abeb 13bf 7e57 603f
000000c0: c440 89be a3a3 41bf edb3 12bf b510 863e
000000d0: 1072 87bf 9d6f 853f 2132 6abe 657b c2be
000000e0: 8bfb d73f 8d9e 5dbf e02c 1bbd b0c3 2b3e
000000f0: bba3 cd3c 19b5 1ebf 993c 5dbd 3675 34bc
00000100: 6419 97be a35a 0bbf 8d76 8bbe 162c 15bf
00000110: 05f6 edbe 8235 c7be 5111 94be 6888 f1be
00000120: f103 89be b1a3 b7be 9b1d bcbe 34d4 6e3c
00000130: 7526 85be 2106 dd3d 9f24 a3be 6d95 81be
00000140: 876b 49bf b49b 72be 95f6 9bbe fb76 123d
00000150: 3764 62bf 40e8 fabe 457c 183d b005 8fbf
00000160: b950 35bf 32c5 6bbe 7443 30be 66e1 7abe
00000170: 2224 f5be f33b 7abe 4102 25bf 82ce f8be
00000180: 7a48 f9bc a565 acbd 768f 08bf 590f 95bd
00000190: b5ce 8abe da2f f1bd 813f 12bf 298a aebe
000001a0: fc9a 2bbe 5fcc c1be a0f2 10be 1479 653d
000001b0: 1d1d 0dbf 0d8c 2fbe 46e1 abbe f139 7abe
000001c0: 90ae f5bd 6b48 5fbd e75e 31bf ac5a 983e
000001d0: 92a8 943e 8ada 44bf 318f 15be 6071 82be
000001e0: b266 37bf c26d 843d 6169 e93e be71 c3be
000001f0: f0b2 2cbf 71c3 dbbe b9c8 71bd b3ae 6bbe
00000200: 3d75 21bf 5572 45bd dc3a 17bf e693 81be
00000210: b281 98be dc6b 3ebe 1a2e d7be f36a aebe
00000220: 0512 ddbd 395b b2be 81c0 12bd d519 8fbe
00000230: b50e 863e ed1b b9be 6797 9bbe a1cd 20bf
00000240: e054 84be 57ab 61be e0a0 933d 90c6 60bf
00000250: 0e9f babe 6f41 85bd b3e6 83bf 34e2 0dbf
00000260: 09be 9ebd 49f3 50be 6b8f a4be 46b9 e4be
00000270: 663c 8dbe 62c5 26bf 2e66 25bf 18ad 4ebd
00000280: 7e76 00be 2281 9dbe 584e 3fbd cacc a8be
00000290: 3b98 5cbe 829d fcbe 4b5a f0bd c3a6 6cbe
000002a0: d9b2 2bbe 52de 78bd 114c 233e 3b5a eebe
000002b0: a728 0dbe e7dd 8abe 8453 0cbe b324 8a3d
000002c0: 4d08 0fbe 9c83 25bf ba95 9a3e cac6 a93e
000002d0: b0b1 52bf 5b9d f4bd f83e a0be f75a 28bf
000002e0: cbec 31bd 7a5d 0d3f 6f78 01be bc06 1cbf
000002f0: 36b3 07bf 6263 30bf 72e6 ba3e 3508 e7bf
00000300: f655 cf3f baf4 9c3e f2f2 653f 3756 e0be
00000310: 5b2d fabd 4aa9 e33f fc2c 3b3f 8bfa b73e
00000320: e19a 863f 21a8 b0be 984b 8bbe 0c04 a83f
00000330: 1c52 25bf e625 54bf 3ce9 42bf 2c42 cd3f
00000340: 641a 03bf f9e4 663d 9b04 c93f fc72 cb3f
00000350: c43e 8c3f 3233 233f afef f33f 5f28 e33f
00000360: ce53 0a3e 0d7e 093f 14f1 a23f aeb3 373f
00000370: 0d91 fabe a55f aa3d f0c7 853f a412 a03f
00000380: 95af ef3d 6070 223e 28b1 42bf 57cd 8a3f
00000390: 5787 78be a4de 23bf 4965 3c40 8d49 da3e
000003a0: 7383 873f da12 053f 96c9 c13f a4f1 0e40
000003b0: 516c 9abe 487d 9ebe 2feb d23e 5703 81bc
000003c0: 3a61 7f3f 2cb0 b3bf 39e0 bf3f a7a1 da3f
000003d0: 5405 9f3f 066f 90bf a364 fabb 2959 303d
000003e0: 9fce 70bd 1c5a dfbe 7c29 b43f 5fbd 993f
000003f0: cd17 e9bc a032 84be cd18 d8be 57af 17be
-1.2877946 -0.5448738 0.17550465 -0.18308868 0.37442386 1.3631617 -0.27324685 -0.30823803
0.050188527 0.14573045 -0.028673489 -0.21899742 -0.31387296 1.1797023 -0.35217282 2.9411325
0.25332698 -0.35303324 1.0905702 1.6531142 -0.70578504 -0.4518793 0.1757285 -2.5333593
0.122006185 0.2147038 1.4057028 0.07601031 -0.051565144 0.33693156 -0.50160235 -0.33949292
-0.2787925 0.05131284 0.4878037 -1.3160303 -0.01777606 -0.12261952 -1.110037 -1.4347945
-1.1056374 1.2909638 0.002859884 -0.1171462 -1.3379569 -0.72231853 -0.57781476 0.876335
-0.26807225 -0.75640315 -0.57305795 0.2618462 -1.0581684 1.0424687 -0.22870685 -0.37984768
1.687364 -0.86570054 -0.037884593 0.16773868 0.025102487 -0.61995083 -0.05401287 -0.011014273
-0.2951156 -0.54435176 -0.27238885 -0.58270395 -0.4647676 -0.3890801 -0.2891946 -0.47174382
-0.2676082 -0.35867074 -0.36741337 0.01457696 -0.26005903 0.107921846 -0.31863877 -0.25309315
-0.786797 -0.23692209 -0.30461565 0.035758 -0.88434166 -0.49005318 0.037227888 -1.1173611
-0.708263 -0.23024443 -0.17213231 -0.24500045 -0.4787913 -0.24436931 -0.64456564 -0.48595053
-0.030430067 -0.08417825 -0.53343904 -0.07278318 -0.2711083 -0.11776705 -0.5712815 -0.34089783
-0.1675834 -0.37851235 -0.14155054 0.056023672 -0.5512255 -0.17143269 -0.33570307 -0.24436165
-0.11996186 -0.054512423 -0.69285434 0.29756677 0.2903486 -0.76895964 -0.14605404 -0.25477123
-0.71641076 0.06466247 0.4558821 -0.38172716 -0.67460537 -0.42922547 -0.059029315 -0.23015861
-0.63069516 -0.04820474 -0.5907419 -0.2530815 -0.2978645 -0.18595833 -0.4202736 -0.3406597
-0.107944526 -0.34835222 -0.035828117 -0.27949396 0.26183096 -0.36154118 -0.30388948 -0.62813765
-0.25846004 -0.22038017 0.07208419 -0.8780298 -0.36449474 -0.06506621 -1.0304779 -0.55423284
-0.0775109 -0.20405306 -0.3214067 -0.44672602 -0.27585143 -0.6514493 -0.6460904 -0.050458044
-0.12545201 -0.30762583 -0.046705574 -0.32968742 -0.21542446 -0.4933892 -0.11735972 -0.2311049
-0.16767444 -0.060758896 0.15946986 -0.46553215 -0.13785039 -0.27122423 -0.13703734 0.06745281
-0.1396801 -0.64653945 0.30192357 0.33159477 -0.8230238 -0.11944076 -0.3129804 -0.657638
-0.043438714 0.5522076 -0.12643598 -0.60947776 -0.5300783 -0.68901646 0.3650394 -1.804938
1.6198108 0.30655462 0.8982383 -0.43815777 -0.12215682 1.7786038 0.73115516 0.35933337
1.0516015 -0.34503272 -0.2720611 1.3126235 -0.64578414 -0.8287033 -0.7613714 1.6035819
-0.51212144 0.05637071 1.570453 1.5894465 1.0956655 0.6374999 1.9057521 1.7746695
0.13508531 0.53707963 1.2729821 0.71758544 -0.4893879 0.08319024 1.0451641 1.2505689
0.117034115 0.1586318 -0.7605157 1.0843915 -0.24270378 -0.640116 2.943682 0.4263424
1.058699 0.5198189 1.5139644 2.2334986 -0.30160764 -0.30954957 0.41195056 -0.015748663
0.9975773 -1.4038138 1.4990302 1.7080582 1.2423501 -1.1283882 -0.0076413914 0.04305378
-0.0587908 -0.43623435 1.407516 1.2010916 -0.028453732 -0.25819874 -0.42206421 -0.1481298

fc1.bias f4 [63]
00000000: 4a30 85bf f840 683f 5325 5a3f 95a7 a1be
00000010: 1d9a 643f ba29 813f 6fea 763f 840a 873f
00000020: ae5a 5d3f 6f60 2f3e 44b8 6ebf d3dd 2abf
00000030: 746d cabe bd8a 3e3f a641 7abf 0389 8b3e
00000040: 85f1 803f 64b4 1b3f 2c5c 82be c006 57bf
00000050: 0af2 3c3f 1034 7d3f 3414 743f cc0b 3b3f
00000060: 3c11 583f d0b0 363f 7ed8 113f 32ec 733f
00000070: a0c2 2f3f 3d46 443f 57bc 3abf 7631 5e3f
00000080: fd04 5cbf b0c5 173f 1101 23bf 85d6 24bf
00000090: ad4a 3abf 2cff 763f a6d3 823f 5738 033e
000000a0: 8c48 433f 614e 613f 9241 843f c16e 7a3f
000000b0: 288e 21bf 0724 61bf 4950 85bf cc9b 243f
000000c0: f7d9 e1be 580c bc3d b82b 693f 525c 1bbf
000000d0: 9450 30bf 87fb 403f ff22 6d3f 3fbf 833f
000000e0: ddf2 563f 6a39 62bd af76 7f3f 46df 763f
000000f0: c8da 7d3f e51e 813f 7186 293f
-1.0405362 0.90724134 0.852132 -0.31573167 0.8929766 1.0090859 0.9645147 1.0550084
0.8646649 0.1712663 -0.9324992 -0.66744727 -0.3953663 0.7443045 -0.9775642 0.2725297
1.0073706 0.6082213 -0.25460947 -0.83994675 0.7380682 0.98907566 0.9534333 0.73064876
0.844013 0.71363544 0.56970966 0.9528228 0.6865635 0.76669675 -0.72943634 0.8679422
-0.8594511 0.5928602 -0.636735 -0.6438983 -0.72770196 0.9648311 1.022084 0.1281446
0.7628257 0.8801022 1.033251 0.9782525 -0.6310754 -0.879456 -1.0415126 0.6430023
-0.44111606 0.09182042 0.91082335 -0.60687745 -0.6887295 0.753838 0.92631525 1.0292739
0.8396433 -0.055230536 0.9979047 0.9643444 0.9916196 1.0087553 0.66220766

out.weight f4 [1, 63]
00000000: 71f0 88bf 5ce1 9d3e 0977 773e 1669 4ac0
00000010: fc48 583e 9cb9 db3e 2c0e b73e adde d13e
00000020: 7331 883e a4be 83bc d7e2 e8bf 56d7 a9bf
00000030: 2aef 1cc0 9a5c 4e3e d840 35c0 13ea 2fbc
00000040: 7efc c33e 9bb6 d73d 8ff6 eebf 55e5 04c0
00000050: f56f 2b3e 617b dc3e bd32 9a3e e81d 4b3e
00000060: d566 833e a54f 053e 7763 323f 423a d13e
00000070: 6183 e43d 0f4a 513e d13f 42c0 46f8 a13e
00000080: a03f 8fbf 68ed ca3d d8b7 f4bf 89c7 ebbf
00000090: 133d cfbf dc88 d13e e5b5 d83e 0493 92bb
000000a0: 45d4 1440 4546 923e e886 de3e 7f80 bb3e
000000b0: a8cb 76bf d91c 09c0 b2a1 bdbf c2be ca3d
000000c0: a696 59c0 9502 863d 2762 8c3e b5e3 00c0
000000d0: 8a1a b8bf ca04 5d3e 5c55 9a3e b5e1 e33f
000000e0: 26c1 843e 9551 3cc0 1f49 a93e 664b 933e
000000f0: 0246 a23e 395a c03e ed10 a73f
-1.0698377 0.30835998 0.24166502 -3.162664 0.21121591 0.42915046 0.35753 0.409902
0.26600227 -0.016082115 -1.8194226 -1.326884 -2.4520974 0.20152512 -2.8320827 -0.01073696
0.38278574 0.10532876 -1.8668994 -2.0764973 0.16741927 0.4306288 0.30116835 0.19835627
0.25664392 0.13018663 0.6968302 0.4086476 0.11157871 0.20438407 -3.035145 0.3163473
-1.1191292 0.09908563 -1.9118605 -1.8420268 -1.6190513 0.40924728 0.42326275 -0.004473092
2.325456 0.28569236 0.434623 0.36621472 -0.96404505 -2.1423857 -1.481497 0.098996654
-3.3998199 0.06543461 0.27418634 -2.0138981 -1.4383099 0.21583858 0.3014325 1.7803255
0.2592861 -2.9424794 0.330636 0.28768462 0.31694037 0.37568834 1.305204
